models/model_dive_classifier_94.pth (torch_old, 444145 bytes, 10 tensors)

fc_position.weight f4 [3, 4096]
00000000: 31a3 40bb a50e c8bc ddc9 d3bb f8a7 7ebb
00000010: dc40 1abd d26e b7bc 9489 5839 3155 2dbc
00000020: 8dd2 a8bb 397a 14ba c4fc 0dbb dee8 37bd
00000030: f7c5 37bd 43fc 233c 4f57 4bbb 72ed 08bc
00000040: 8916 f73c 727f bebb 31f5 74bb 55f0 68bb
00000050: 5a33 213c 523e f83b 2dea 25bc 5398 a83c
00000060: 2b48 393c 22ab a8bc cd9e 313c 5865 7c3d
00000070: e689 c7bc 0889 eebc a811 af3b 13e5 363c
00000080: d431 c3bc aa78 a93d 6414 863c d604 1bbc
00000090: 8543 953b 4ede f3bc 1f14 86bc a9e4 23bc
000000a0: e12e 8ebc fbd6 c8bb 8ed8 3c3d e393 04bd
000000b0: 59a2 0f3c 089c 9bbd 0181 c6bc cade 063c
000000c0: f4ce 16bc 39fa e53b d3fc 4fbc 86bf 94bc
000000d0: 835d 38bc 9f9e eebc 9c2a c33a bb7f 27bd
000000e0: e49c 4b3b 6060 413c 334a 35bd 7929 f4bb
000000f0: c8f2 27bd 493c 9fbc d5c5 4fbc ea0d 613d
00000100: 8c03 63bd 0019 1dbc 156b 4abb 664c 6cbb
00000110: db72 b2bd 2039 553a dd45 c53b 42df 043c
00000120: 9b18 36bc e9ac 89bb 765c 9f3c c9eb b0bb
00000130: a188 9e3d d637 63bc 30ba 64bd b492 743b
00000140: 48aa 38bc 1c19 f4bc c7ec 22bd 967b 0b3d
00000150: a68a 19b9 a9d0 17bd 7f2b 8cbc e449 14bc
00000160: 5390 abbd 2895 42bc 65c1 bb3b e2ad 1dbc
00000170: dc95 193c 4aa2 80bc 0f67 6fbc 47c3 6a39
00000180: 64df bdbd 428c b6bc 6661 91bb 5272 01bd
00000190: 1688 60bc e2bc 7abc 14de 643c 2343 21bc
000001a0: 32c7 01bd e7a4 4c3b fc4e 853b 047a a0bd
000001b0: 1ee2 44bc af59 863b 8ae6 cdbd 6781 f03b
000001c0: ceb5 d13c cc95 8a39 ab5e de3b a1ba 80b9
000001d0: 3e4c debb 6913 743c afaf 97bb 3e11 843c
000001e0: 14cf 7dbb 0725 363b b973 b7bc 39bd 83b8
000001f0: e0b6 e838 c131 89bb 4c37 c53b 4366 6abc
00000200: 58cf c83b a386 73bc 498a f53b 74fe b73c
00000210: b3cc 58bc 28ae 873a 9348 a1bc 7e02 e2bb
00000220: 25c0 5fba c9a7 30bd 1663 893a e213 983b
00000230: 5dd7 81bc 2ece 95bc 1ceb ec3b f17d b83b
00000240: 8182 6fbd a7ef 223c 1cbc d63a b535 153d
00000250: 5209 84bc 3293 34bc 203b 36bc bd50 ec3a
00000260: 6cc0 49bc f7fd 193c d5f0 463b 3d06 08bc
00000270: 9c0d 123c 9ed4 d5bb 1792 82bc 2d5a 11bd
00000280: e5c4 403c 7aa3 783c 0a3d fabb 8ffe debb
00000290: 0ffd 1b3c 4f60 e9bc 4f21 703b d44f 91bd
000002a0: a0d6 f4bb 837e 753b 8759 31bc 6ddb 253b
000002b0: 5055 b0bb 3533 bf3c f1c7 db3b fc73 6b3d
000002c0: 8ea1 41bc 0caf 9fba 6ba0 92bc a860 38bc
000002d0: 6faf 1a3c 8558 d4bb 35ef 81bc 9755 12bd
000002e0: 9f72 babc a6eb 36bb 246f f8bc af22 78bd
000002f0: 392a 64bc d2a8 b73a 7f7a adbc a5c8 05bc
00000300: bc86 81bd cdb2 24bc f7e2 80bc 8553 d3bc
00000310: 31e0 a339 2bda 0b3c e3ef cfba a09a eabb
00000320: 2ccc 45bc b6f6 98bc bf0c d9bd e4ba 693c
00000330: acb6 1d3d eaa9 aa3a 423d 433b ec8f 84bc
00000340: 685c 7dbc 5628 903c f57d 6cbd 4281 2d3c
00000350: 5fee 1cbd 62f7 b73c af2b 9bbc 9d13 90b8
00000360: eeb0 46bd 909f cd3b 9f4b eb3b dd49 0abc
00000370: 7d99 ca3b 4cb6 883b 3f15 76bc 6a83 16bc
00000380: 3409 bcbc 48b8 ddbc ad91 0d3a d81c 6cbd
00000390: b315 1e3c bd1e 073b e16d 3e3c 9eb5 58bb
000003a0: 659e 983c 3ce5 153c 312b e63b dac0 4a3c
000003b0: 916f 9a3c a5a8 173c 6865 163c cbb0 b2bb
000003c0: 630d 9bbb 30c4 59bd 1a28 3c3c f38f 233c
000003d0: bab1 8d3b 2e1b 45bc 6891 4bbd 16fe 85bb
000003e0: 1d16 ca3c 1bfb 2ebc 5afa 65bc 350e bcbb
000003f0: e68e 393a d2ad 8cbc 6063 e9bb 627e dbba
-0.0029394145 -0.024421046 -0.006463273 -0.0038857441 -0.03765951 -0.02239171 0.00020650617 -0.010579393
-0.0051520527 -0.00056639645 -0.0021665553 -0.044899814 -0.04486653 0.010008874 -0.0031027382 -0.008357393
0.030162113 -0.0058135325 -0.003737759 -0.003554364 0.009838903 0.0075757885 -0.010126633 0.020580446
0.01130871 -0.020589415 0.010841084 0.061620086 -0.024357747 -0.029118076 0.005342681 0.011163014
-0.02382747 0.08274968 0.016367145 -0.009461602 0.004555168 -0.02976909 -0.016367016 -0.010003247
-0.017356338 -0.0061291433 0.04610496 -0.0323676 0.008766734 -0.0759812 -0.024231436 0.008231828
-0.009204615 0.0070183543 -0.012694555 -0.018157732 -0.011252764 -0.02912837 0.0014890018 -0.040893298
0.0031068856 0.011802763 -0.044260215 -0.007451233 -0.04100302 -0.019437926 -0.012681444 0.05494491
-0.055423304 -0.00958848 -0.003088658 -0.003605628 -0.08713313 0.00081338175 0.0060202912 0.008109869
-0.011114265 -0.0042015207 0.019453268 -0.0053992015 0.07740904 -0.013868293 -0.055841625 0.0037318887
-0.011271067 -0.02979713 -0.03977659 0.034053408 -0.00014642868 -0.03706423 -0.017110584 -0.00905082
-0.08377137 -0.011876382 0.0057298415 -0.009623976 0.009374108 -0.015702385 -0.014611973 0.00022388725
-0.09271124 -0.022283677 -0.0044366596 -0.031603165 -0.01370432 -0.015303822 0.013968963 -0.009842667
-0.031684108 0.003122622 0.0040682536 -0.07835773 -0.012016801 0.0041000466 -0.100537375 0.0073396447
0.025599387 0.00026433019 0.0067861876 -0.00024553112 -0.006783991 0.014897206 -0.0046290974 0.016121503
-0.0038728165 0.0027793066 -0.022394048 -6.281812e-05 0.00011096685 -0.0041868393 0.006018555 -0.014306608
0.006128233 -0.014863643 0.0074932915 0.0224602 -0.013232398 0.0010351585 -0.019687926 -0.0068972697
-0.00085354067 -0.043128762 0.00104818 0.004641042 -0.015849764 -0.01828679 0.0072301757 0.0056302478
-0.058474068 0.009944833 0.0016382965 0.036428172 -0.016117726 -0.011021422 -0.011122495 0.0018029433
-0.012313943 0.009398929 0.003035595 -0.008302269 0.008914378 -0.00652559 -0.015938802 -0.03548639
0.011765693 0.015175695 -0.007636671 -0.006805248 0.009520783 -0.028488306 0.0036640947 -0.07095304
-0.0074718744 0.003745944 -0.010824568 0.002530779 -0.005381264 0.023339847 0.0067071845 0.05748366
-0.011818303 -0.0012182905 -0.017898759 -0.011253513 0.009441241 -0.006480279 -0.015861133 -0.035726156
-0.022759734 -0.0027911454 -0.030326433 -0.06057995 -0.013926082 0.0014012104 -0.021176575 -0.008165513
-0.06324527 -0.010052395 -0.015733225 -0.025796661 0.00031256818 0.008535902 -0.0015864338 -0.007159546
-0.012072604 -0.018672328 -0.10598134 0.01426575 0.038504288 0.0013020609 0.0029791151 -0.016181909
-0.015463926 0.017597359 -0.05773731 0.0105898995 -0.038313266 0.022456829 -0.018941728 -6.870108e-05
-0.048508577 0.006275125 0.0071806456 -0.008440462 0.006182848 0.004172122 -0.015019714 -0.009186605
-0.022953607 -0.027065411 0.00054004305 -0.057644695 0.009648728 0.0020617687 0.011622877 -0.0033067237
0.018630216 0.009148892 0.007024192 0.012375081 0.018852027 0.009256517 0.009179451 -0.0054532043
-0.0047318204 -0.053165615 0.01148417 0.009983051 0.004324165 -0.012030406 -0.049699217 -0.0040891273
0.024668748 -0.010679985 -0.014036739 -0.0057389983 0.00070784835 -0.017172728 -0.007122442 -0.0016746039

fc_position.bias f4 [3]
00000000: 27c8 a03b 849e 253b 1076 e8b9
0.0049066725 0.0025271485 -0.00044338452

fc_armstand.weight f4 [2, 4096]
00000000: c0e6 a63c 84a6 323c dd82 51bc fe90 0bbc
00000010: a584 19bd 36ed c53c 46dc ad3c 2d19 d9ba
00000020: 516e 243d 70fc 313c 7273 8d3c 9a79 f9bb
00000030: ffc0 69bc 1fc9 343c 00ed ecbb 37a8 913c
00000040: 19e8 113d dca9 a13c 7db5 a1bc f2fd a43d
00000050: 4e6d 793b 5ea6 d8b8 9cee 113b c2d6 503c
00000060: 1a1d 523c 6d50 1b39 bde3 8a3b 2b9f 863d
00000070: d451 613d 4ff8 c3bc cc94 bdbc 2c1d 1dbc
00000080: 25f1 443d 9e35 3ebd 5907 16bc 582f f83b
00000090: ea21 223c bf01 b73b acc0 3c3a 4a66 c03c
000000a0: 39fa fcbb 8e4a 57bc d6a2 e6bc b816 edbc
000000b0: 68b9 ffbc 7e44 033d 2a28 f13c 2f5c 08bc
000000c0: a664 a93c e07b 10bb 90c5 13bd 7ae8 053d
000000d0: 4c28 853c e37e be3c d00a 913c 3059 edbb
000000e0: 13c7 023c 991d 5bbb cba3 193d 87d5 633b
000000f0: 269a 743d b269 863d 76c4 b0bc e2b1 26bc
00000100: b532 73bc 750e a2ba 00c1 80bc 4c05 8a3c
00000110: 73bf 423c cd1d 72bb 0ad9 893c a1d0 613c
00000120: 3e86 613c 7678 f23b 743a 113d eeae 9d3b
00000130: c2e9 babc 6081 c63c d88a ed3c cf5a 893c
00000140: 3a28 67bb 1f02 bcbc 48ee 43bb 8e42 503d
00000150: b404 02bc 3f54 933b 8990 493b b1e6 eb3c
00000160: 0dac 023c 4c5c f83c 643e 5bbc e12c 713b
00000170: 9158 0bbc b13e 2abc d306 d6ba e552 3e3c
00000180: db92 cb3c 69bc d6bc 665d f7bb 2c3f 173d
00000190: c1b2 d93b c749 56b9 c22e 383c f160 0a3d
000001a0: f9a9 c73d 0f6a 41bc a951 f2bb 9613 923d
000001b0: 0ddf c73c 7f82 4a3c 836e 253d 0c10 91bb
000001c0: f7c1 8f3b 5e36 20bc c66c 13bc 5102 5b3c
000001d0: eaac 72bb 7d90 a3bc 8266 493b 170f d8b9
000001e0: 53f9 6abb 4660 cabb 141c 19bb 326b f43b
000001f0: e2a3 8e3d 84ac 75bb ff15 01bc 83cf 12bc
00000200: 94d1 2bbc ac0a 17bc 4bd4 38bb c443 8dba
00000210: c92c f83b 31c6 1b3c 80ce 1abc 4e3d be3c
00000220: 4eca 2c3c 6b3f 4c3d f3ad 0c3c 2d39 57bc
00000230: 325a f03b 494a c93d b6eb 253b 1e25 ed3b
00000240: 4e4f 8e3d ff55 5fbb 213f bd3c 83a0 1cbb
00000250: bab4 47bc 2e3a d83b 085f a0bb d03d 35bb
00000260: 7882 18bc 6586 a03c 02ca 3bbc 6cd0 06bd
00000270: 43f6 31bc 1317 603c c928 c53b 78b5 ccbc
00000280: 708e 303b 0af2 a13b 06df 4f3c ddc5 6dbc
00000290: 3001 b2bb 8555 23bc 15f9 7aba 7d0b 953a
000002a0: 01ec fabb 18d9 f93b 0f01 a73c 575b 363c
000002b0: 8f34 56bc 9112 e7bc 72b9 95bb 15fd 663d
000002c0: 5a7c 8339 5924 6c3c 50f4 27ba 9c2f 10bc
000002d0: c411 773c dbb3 c4bc 1f05 0b3d 69ba 153d
000002e0: c541 323c d585 00bc af4b 053d 5823 703d
000002f0: 57e6 82bb 97a1 f33b 2495 46bb 74ba 8cba
00000300: 680b 823d 3368 6f3c f49d 483b e2dd 93bb
00000310: 8ac9 2dbc 72be 333b ea3d c5b9 dc4d f1ba
00000320: 9e07 8dbb 7843 293c 3321 9e3c a46f 043c
00000330: a8ac e0bc 0aca b1bb a621 0bbc 866e 8eba
00000340: af3d 5a3c e101 5bbc 2e58 f5bb 21d9 d6ba
00000350: 4f4d 90bc 09be 0c3d d2fe 89bc 675f 4ebc
00000360: eb6a 333d 8b40 54bc 468b 7dbb d13d 533c
00000370: e2f0 1cbc 4351 1f3c 011d 7ebb 3ca5 19bc
00000380: 69ee 623d d5f0 f43b 9894 b43b 77ea 993b
00000390: 2846 23bc a51f df3b de4c b8bb ce41 273c
000003a0: fb8a 24bc de21 dcba 4f2c 62bc 1a36 5a3c
000003b0: 1ef5 febc e826 30bc 34dd e4bb 48cf 3bbb
000003c0: 766a 1dbb da98 a9b9 f28d 0f3b 1060 743c
000003d0: 898b b73b c648 aabc d694 ed3c 80bd 983c
000003e0: 755d d63c 8839 ce3a f09a 65bc 5147 0abc
000003f0: 8d29 cc3b f442 ac3d b813 ce3c e454 87bc
0.020373702 0.010903958 -0.012787548 -0.008518456 -0.037480015 0.024160963 0.021223199 -0.0016563289
0.04014427 0.010863408 0.017266963 -0.007613373 -0.014267205 0.011034279 -0.007230401 0.017780406
0.035621736 0.019734316 -0.01973986 0.08056249 0.0038059535 -0.00010330671 0.0022267466 0.012746515
0.012824321 0.00014811913 0.0042385743 0.06573328 0.055009678 -0.023922114 -0.023142241 -0.009589475
0.048081536 -0.046437852 -0.009157025 0.007574003 0.009895781 0.005584925 0.0007200341 0.023486275
-0.0077202586 -0.013140334 -0.028153818 -0.028941497 -0.031216338 0.03204774 0.029438097 -0.0083227595
0.020677876 -0.0022046492 -0.036077082 0.03269241 0.016254567 0.023253864 0.017705351 -0.007243298
0.007982033 -0.003343439 0.03750972 0.0034764723 0.05971732 0.065631285 -0.021578055 -0.0101742465
-0.0148436325 -0.0012363928 -0.01571703 0.016848229 0.011886465 -0.0036944032 0.016827125 0.013782651
0.013764916 0.007399614 0.035456136 0.004812113 -0.022816543 0.024231613 0.02899687 0.016766934
-0.003527178 -0.02295023 -0.0029896665 0.05084472 -0.007935692 0.004496127 0.0030756316 0.028796526
0.00797559 0.030317448 -0.013381574 0.0036800432 -0.008505003 -0.010390923 -0.0016328938 0.011616443
0.0248503 -0.026212888 -0.0075489758 0.03692548 0.0066436236 -0.00020436115 0.011241617 0.033783857
0.097492166 -0.0118050715 -0.0073949886 0.07132642 0.024398351 0.012360214 0.040388595 -0.0044269618
0.004387136 -0.009778587 -0.008998102 0.0133672515 -0.0037029334 -0.019966358 0.0030731265 -0.00041209973
-0.0035854175 -0.0061760275 -0.0023362683 0.0074590677 0.06964852 -0.003748686 -0.007878779 -0.008960607
-0.010486979 -0.009218853 -0.0028202708 -0.0010777642 0.007573698 0.009507702 -0.0094486475 0.023222592
0.01054628 0.049865168 0.008586395 -0.01313619 0.007334971 0.09828622 0.0025317497 0.0072370907
0.0694872 -0.0034078357 0.023101391 -0.0023899383 -0.012189085 0.0065987324 -0.004894141 -0.0027655251
-0.00930845 0.019595334 -0.011461737 -0.03291361 -0.010861936 0.013677376 0.006016825 -0.024988875
0.0026940368 0.0049421834 0.01268745 -0.014512506 -0.0054322705 -0.00996912 -0.0009573859 0.0011371222
-0.0076575284 0.0076247565 0.020386247 0.011130176 -0.013074054 -0.028207095 -0.004569226 0.0563937
0.00025078916 0.014412963 -0.000640695 -0.008800413 0.015079919 -0.024011543 0.03394043 0.036554728
0.0108799385 -0.007844408 0.03254288 0.058627456 -0.003994744 0.0074350345 -0.0030301297 -0.001073672
0.06349832 0.014612245 0.0030611726 -0.0045125345 -0.010607133 0.0027426747 -0.00037620898 -0.0018410045
-0.0043038866 0.010331027 0.01930294 0.008083258 -0.027426079 -0.0054256963 -0.008491909 -0.0010866679
0.013320371 -0.013367147 -0.0074873185 -0.0016391614 -0.017614989 0.03436092 -0.01684514 -0.012595988
0.043803137 -0.012954841 -0.003868775 0.012893156 -0.009578915 0.009723964 -0.0038774612 -0.009377774
0.055403147 0.0074749985 0.005510878 0.00469714 -0.009965457 0.0068091922 -0.0056243977 0.01020856
-0.010042901 -0.0016794761 -0.013804509 0.013318563 -0.03112274 -0.0107514635 -0.0069843773 -0.0028657485
-0.0024019754 -0.00032348075 0.0021904674 0.014915481 0.0056013507 -0.020786654 0.029001635 0.018645048
0.02616761 0.0015733698 -0.014013991 -0.008439855 0.006230539 0.08411208 0.025155887 -0.016519971

fc_armstand.bias f4 [2]
00000000: c948 633a d41b 6a3c
0.00086702086 0.014288861

fc_rot_type.weight f4 [4, 4096]
00000000: b026 893b 9b4b cebc ac3e b3b9 69ad 653b
00000010: 5e89 c0ba d75f 5cbb dd8e c6bb 526e 153c
00000020: 7e2a a3bd a03f 13bd 17d9 03bc 9781 0abd
00000030: c6cc 30bc c625 a4bb e218 823c 04fe 6eba
00000040: 63d5 0e3d fbf8 67bb 9616 893c 9945 b13c
00000050: 463e 163c be88 183b ca07 7f3c 17d3 bb3b
00000060: 1122 ca3b 5684 d5bc ead2 173c db79 643c
00000070: bd70 92bd 0bdd 8c3c a616 573d 4e6b 2ebc
00000080: 468b a9bc 47f7 bebb a3a7 18ba b2d2 acbb
00000090: 2274 653c 9434 ecbc 6859 803b ac84 24bc
000000a0: b93d d3bc 9053 4e3c 8017 223d 37f9 89bc
000000b0: f07d 713d 0055 c03b 4204 a4bc 5fb5 74bc
000000c0: 3515 2dbc 2739 25bc 875b 4fbc c739 fc3c
000000d0: 3588 d0bb 597e d5bd 7ae6 29bc ceee 113c
000000e0: 8874 e03b 8189 f4bb cb5b e3ba 4d4e 20bc
000000f0: d695 96bd d8ba 9ebd 3a35 823c 9ab8 493c
00000100: 96ea 873c 4c99 073c 2b94 b1bb 02d5 df3b
00000110: 662b 42bd 3564 1bbc fcd9 ad3b 0fc2 a4bb
00000120: 73c7 24bc 62fb 593c 74e1 f2bd 7405 67bb
00000130: 3ba6 ed3c 2ba9 bc3b ddf5 91bd 5617 b93b
00000140: 5572 e33b dd65 82bb d495 4a3c 65d6 e8bc
00000150: 5498 423c 09bf adbc 4788 3c3b af04 76bc
00000160: f35e 08bc de8c 5f3c 9926 533c a6ea f3b9
00000170: 044f 66bc c8e4 3f3b a15f 80bc b7b9 1abc
00000180: f471 633c 49fa 683c 8ac7 603a abff 223c
00000190: 27ca 223a 098c d0ba 17b2 7bbc 493d 0f3d
000001a0: 7abf cf3c 7f35 e3bb 79fe 133c a671 03bb
000001b0: 3e4f f3bc a990 56bc a32f a2bc c2e7 833c
000001c0: 13d4 34bd 3c76 02bc 6f2d 8a3c 68a2 ffbb
000001d0: 5af1 b03b 0ab9 933d dce4 44bc 2b85 3abc
000001e0: a307 b3bb 1785 5a3b 29b2 873c 8605 943b
000001f0: 49db a53c 09c3 063c bbf5 d7bb db13 483b
00000200: fe62 723c b64b c6bb 55ab 9d3c 5e8e 32bc
00000210: 947e a9ba 821e 3bbb fdd8 c23b cecb 2e3d
00000220: 475e ab3b fae0 a23b 95cc a73b f8a0 c6bc
00000230: 1785 eebb ea26 adbc 402c 2bbc ec0c 723c
00000240: 3906 c6bd 0d1b 90bb e4b1 d038 8423 adbc
00000250: 885f 4abb 68db 06bc 9e80 4f3a b783 39bc
00000260: 6a37 5e3c 069e bc3b 064d 543a 698d 2c3d
00000270: e568 35ba 75a8 dbbb b0e8 07bc 6a23 df3c
00000280: 4ce4 be3b 506a 873d 22b5 1dbc a260 153c
00000290: d54e bf3b 1cab b0bc e6d6 89bc cd44 8abd
000002a0: 79ee 953b 623f c5bb 3d80 703b 38a3 beba
000002b0: 421b 6cbc 4220 7f3b d5a4 ce3b e8da fa3b
000002c0: c3ea 3ebc 4615 46bc 1bdc 7b3c 6436 813b
000002d0: 8bc3 96bc c237 86ba bed8 97bc 8239 953c
000002e0: f4f6 043c 35c1 42bb 32f4 f23c fff3 18bd
000002f0: 2de5 923c cbb5 423c 0015 68bb f3ab a63c
00000300: 1ac2 8bbd 6f6f 003c 73c6 cf3c 203a b63c
00000310: 93ff 083b 6505 03bc 754d f8ba 63c2 fabb
00000320: 1b91 223c 406d e2bb e1e7 08bd bde7 2b3c
00000330: 6bb3 e7bb fe6e 23bc 90ac 573c 88fb 0ebc
00000340: 033d 2e3c da66 3bbd 970f 90bc affa 55bc
00000350: 34ce e7bc f9f0 f43c f057 603b 5069 473a
00000360: 18a1 cbbd 2710 0c3c 9934 8e3c 37f0 473b
00000370: a343 873c 783e 02bb dacc 74bc 081d 5abc
00000380: 1839 c1bb 58e6 9abd e53a 823c c8a5 80bd
00000390: 87bb 2a3c 0d71 babb 8f0b d83c 48e3 12bc
000003a0: c00c 683a a940 243c ca17 643b 1d12 dd3b
000003b0: 50af 25bb 0d64 a8bb da44 36bc 6615 ce3b
000003c0: 0d97 d13c 7e00 0abd c0e9 02bc 9816 363c
000003d0: 6c83 83bb 9c6d a93c ecb0 c3bd e45b 87bd
000003e0: 19fe e3bc 2a49 29ba 08e9 a8bb a40f 0dbc
000003f0: d411 08bc 134a 83bc ba0c 26bd a731 413d
0.00418552 -0.025182536 -0.00034188235 0.0035045987 -0.0014689376 -0.003362646 -0.006059511 0.009120541
-0.07967089 -0.03594935 -0.008047364 -0.033814993 -0.010791009 -0.0050093858 0.015881006 -0.0009116831
0.03487147 -0.0035396207 0.016734403 0.021639632 0.009170121 0.0023274864 0.015565822 0.005731951
0.006168612 -0.02606408 0.009266594 0.013945068 -0.07150409 0.017195245 0.052511834 -0.010645701
-0.020696294 -0.0058278176 -0.00058233197 -0.0052741403 0.014004739 -0.028833665 0.003916908 -0.010041397
-0.025786268 0.012593165 0.039573193 -0.016842468 0.058957994 0.005869508 -0.020021562 -0.01493582
-0.010564138 -0.010084427 -0.012656099 0.03078927 -0.0063638934 -0.104244895 -0.010369891 0.008907033
0.006849829 -0.007462681 -0.0017346082 -0.009784293 -0.07352798 -0.07750481 0.015894521 0.012312079
0.016591351 0.008276295 -0.0054192743 0.0068308124 -0.04740467 -0.00948434 0.005305527 -0.0050280164
-0.010057318 0.013304563 -0.11859408 -0.0035251053 0.029009929 0.005757471 -0.07126973 0.005648534
0.0069411197 -0.003979428 0.012364823 -0.028422544 0.011877138 -0.021209257 0.002876775 -0.015015765
-0.008323419 0.013644425 0.01288762 -0.00046523398 -0.014056925 0.0029280651 -0.0156706 -0.009443692
0.013882149 0.014219829 0.00085746555 0.009948651 0.00062099326 -0.0015910874 -0.015362284 0.034970555
0.025359858 -0.0069338675 0.009032839 -0.0020056753 -0.029700872 -0.013096013 -0.019798106 0.016101722
-0.044147562 -0.00796276 0.016867368 -0.0078013428 0.005399865 0.07213028 -0.012017455 -0.011384289
-0.005463557 0.0033343488 0.016564446 0.00451726 0.020246165 0.008225211 -0.0065905727 0.0030529413
0.014794109 -0.006051506 0.019246737 -0.010898201 -0.00129314 -0.002855212 0.005946277 0.042674832
0.0052297446 0.004970667 0.0051208236 -0.024246678 -0.007279049 -0.02113672 -0.010447562 0.014773589
-0.09669156 -0.004397756 9.9513476e-05 -0.0211351 -0.0030879695 -0.008231021 0.0007915589 -0.011322907
0.013563016 0.0057561425 0.00080986356 0.042127047 -0.00069202326 -0.0067034313 -0.008295223 0.027238566
0.005825555 0.066120744 -0.009625705 0.009117277 0.005838255 -0.021565966 -0.016826104 -0.06751404
0.0045755473 -0.0060195187 0.003669753 -0.0014544493 -0.014410796 0.003892914 0.0063062706 0.00765549
-0.011652651 -0.012090033 0.015372301 0.0039432514 -0.018403789 -0.0010240006 -0.018535968 0.018215898
0.008115519 -0.002971721 0.029657457 -0.037342068 0.017931545 0.011884163 -0.0035412908 0.020345664
-0.06824131 0.007839068 0.025363183 0.022244513 0.0020904287 -0.007996892 -0.0018943982 -0.0076525672
0.009922291 -0.0069099963 -0.033424262 0.010492262 -0.007070949 -0.009975193 0.013163701 -0.008726962
0.0106346635 -0.045752384 -0.017585559 -0.013060256 -0.028296567 0.029900061 0.0034232102 0.00076069403
-0.099428356 0.008548773 0.017359065 0.003050817 0.016511744 -0.001987366 -0.014941419 -0.013312586
-0.0058966987 -0.07563466 0.015897224 -0.0628162 0.010420687 -0.0056897462 0.026372699 -0.008965321
0.00088519976 0.010025182 0.0034804218 0.006746544 -0.0025281496 -0.00513888 -0.011124814 0.006289172
0.025584722 -0.033691876 -0.007990301 0.011113785 -0.0040134694 0.020682149 -0.095552295 -0.066093236
-0.027831124 -0.00064577407 -0.0051547326 -0.008609686 -0.008305032 -0.016026532 -0.04053948 0.047166493

fc_rot_type.bias f4 [4]
00000000: 8790 9ab8 9656 1d3c c632 b7bc 0440 b8ba
-7.3702126e-05 0.009603163 -0.022363078 -0.0014057164

fc_ss_no.weight f4 [10, 4096]
00000000: 45fa b63b 8f3a 0b3d 5c44 f03b 57d5 2abc
00000010: 380d bf3b 97ea 8bbc 6423 27bd e371 55bc
00000020: 7318 943c d825 993b da21 68bc 4307 2dbd
00000030: e353 4fbd a65a b23b 2eea d13b f712 5838
00000040: 5131 97bb 1a4e f2bb 6ff4 8bbd 7169 0dbd
00000050: 5d7e 003c ce44 803c 32fe 00bc 1880 4abd
00000060: eb85 35bc 385d a6bd 28ad 3abc 5237 ed3c
00000070: aa01 d8bd 6410 8fbb 1833 abbd 2b80 433c
00000080: 1aa2 1fbc b20f 6f3d 31bd 1abc 0436 203c
00000090: cabc bebb f8ba bdbb 5332 bbbb f2fd 66bd
000000a0: e464 02bd 5f8c 56bc 008d 5b3d 7359 adbd
000000b0: 5515 3bbd 63ae 793c d3a8 a7bc 0923 893b
000000c0: d92f c1bc 7343 b33b 74b4 f8bc b0a0 8cb9
000000d0: f498 a83b 9ed2 cdbd fbe7 503b f50c d5bb
000000e0: d40d bb39 8ce9 4fbc 1f6d 34bd dc97 87bc
000000f0: aa9d 79bd 0d97 e1bd 5e76 4dbd f182 98bc
00000100: 327d 28bd 0e3f 0b3c 464e 98bb 5b4e 053c
00000110: a94e 66bd 5283 b938 7a7b 57bc a8b8 4abc
00000120: fad9 89bc 2af6 31bc 758c 73bc 97be 88bb
00000130: b315 a1bc 8a10 8dbc ca02 17bc a4be 6ebb
00000140: 0c65 a33b 24b2 10bd 5eb4 ffbc e4a6 0f3c
00000150: 76d9 3ebc 1e32 09bd e26e 083c b461 81bd
00000160: e16c 55bd 2e8d fdbc 37ce 0fbb 5f3c 0abc
00000170: 716b d0bb 8825 ce3a c97c f33b fd4e 82bc
00000180: 7075 a9bd 9c3b d3bc 01ca f93b 60f3 debc
00000190: 864d b43b e6d8 6bbc 584d 27bb 1b24 e3bc
000001a0: 0cae 1dbd 4247 6fbc 5684 51bd 5f1b 86bd
000001b0: 408e 19bb 9e7a fe3b ace4 83bd ad57 0dbb
000001c0: dcfb e6bc c6c4 7239 c6f9 893b 0131 81bc
000001d0: b693 003c 6a26 0ebd 2fcd 24bc d817 c13b
000001e0: 248a 3d3c 591c 1fbc 917b b7bb df25 8dbc
000001f0: 0923 65bc edfc 4b3c 705a 8c3b b004 b53a
00000200: aa77 163c c32b 46bb 7483 94bc 6389 983c
00000210: 5f49 0abc f60c 11bc 1ead aa3b 34a2 23bd
00000220: ff2c 7dbc 5127 6ebd 7baf 21bc 4dc3 64bd
00000230: 20a8 c03b fc23 9ebb 4e66 623b cfe9 273c
00000240: 8929 b8bd c258 c1bb 5066 26bc 7350 80bd
00000250: 4c5a 9fba aaed 65bd 35e6 dab9 3e5e 3ebc
00000260: df02 f83b 7d4b c9bb 708a 603c 9346 aabd
00000270: 5241 5d3c 47de c03b 5435 ceb9 c058 d0ba
00000280: e978 e43b f5f9 263d 951f d43a 6eee c43b
00000290: d084 adbb f81c 41bd 99e9 0bbc 47a3 6abd
000002a0: 5379 493c b72b 90bc 7798 2dbc a160 82bc
000002b0: 99ff 163c 3ab0 01bd b40b 9ab7 164e b0bc
000002c0: dd4c 02bc 7fdd 393b e8f1 8fbc 77f0 b93b
000002d0: 52c5 f8bb e6b6 33bd 20ef a6bc 2e14 c8bd
000002e0: 5729 a7bc 584d 09bc de4f 053c 97bc 26bd
000002f0: d17a 223b d030 8b3b 0ffd 863a 203c 2cbc
00000300: 39bc bbbd 160e b7bc 277f ac3b eccf 88bc
00000310: d421 00bb 7e35 babb d8b4 8d3b e97a 943b
00000320: ac0d 84bb ac2c fcba ac6d b6bd 7513 60bc
00000330: b309 5ebd 277c 6bbc 2c78 81bc e815 b73b
00000340: 57a5 333c dad0 26bd 0085 363c af44 a0bc
00000350: 46f5 cbbc bcb7 bdbc d126 82bc 7152 be3a
00000360: 1f08 02bb b5b2 01bc fe3e 373c c6e1 9dbb
00000370: 77f2 b43b 2e8b 013a 98e3 073a ce24 95bc
00000380: 2f86 9abc 5d5a a5bd 5e96 fcbb 460f b7bb
00000390: 39c3 11bc be60 24bc c5c1 be3b ab11 0a3c
000003a0: f1e2 08bd 02de 84bc c1aa 2bb9 8f66 e3bb
000003b0: e2cb a03c 952f f6b8 f585 183c 628e b73b
000003c0: be59 cfba 9209 f7bd eb18 b73b 6eff 28bc
000003d0: 90b6 96bb e0b1 c2bd f52e e0bc 56ab 87bd
000003e0: 34bb 053d 31f2 58bc f2ee 243b 2597 df3c
000003f0: 0af8 aeba 8347 d5bc a403 1ebd 05f5 36bd
0.0055840337 0.033991393 0.007332368 -0.010426841 0.005830433 -0.017079635 -0.040805236 -0.013027641
0.018078065 0.004673701 -0.014168227 -0.042243253 -0.05061711 0.005442935 0.00640609 5.1516075e-05
-0.0046140333 -0.0073945643 -0.068337314 -0.034524385 0.007842627 0.015657809 -0.007873105 -0.049438566
-0.011079292 -0.08123249 -0.011393823 0.028957043 -0.105471924 -0.0043659676 -0.08359355 0.011932413
-0.009743238 0.058364578 -0.009444521 0.009778503 -0.0058208453 -0.0057901107 -0.005712786 -0.056394525
-0.031834498 -0.0130949905 0.053601265 -0.08464327 -0.04567464 0.015239331 -0.020466244 0.0041850847
-0.023582386 0.005470687 -0.030359484 -0.00026822602 0.0051451866 -0.10049938 0.0031876552 -0.0065017887
0.00035677722 -0.012689959 -0.04404938 -0.016551904 -0.060941376 -0.11015139 -0.050161712 -0.018617125
-0.04113502 0.00849892 -0.004648003 0.008136357 -0.05622736 8.845948e-05 -0.013151998 -0.012373127
-0.016827572 -0.010861913 -0.014865031 -0.0041731107 -0.019663667 -0.0172198 -0.009216974 -0.0036429549
0.004986411 -0.03532614 -0.031213935 0.008767817 -0.011648526 -0.03349506 0.008327218 -0.063174635
-0.05210579 -0.030951109 -0.0021942982 -0.008437245 -0.0063604643 0.0015727738 0.007430647 -0.015906805
-0.082743526 -0.02578526 0.0076229577 -0.02721566 0.0055024056 -0.014394974 -0.0025528278 -0.027727177
-0.038496062 -0.0146043915 -0.051151596 -0.06548189 -0.0023430735 0.007766082 -0.064401 -0.0021567151
-0.028196268 0.00023152222 0.0042106835 -0.015770437 0.007847717 -0.034704603 -0.010058685 0.005892735
0.01156858 -0.009711348 -0.005599447 -0.017229972 -0.013985404 0.012450439 0.004283242 0.0013810601
0.009183804 -0.0030238486 -0.018129088 0.018620199 -0.008440345 -0.008853188 0.0052086255 -0.03994961
-0.015452622 -0.058142964 -0.009868498 -0.055850316 0.005879417 -0.004826067 0.0034545842 0.010248615
-0.08992297 -0.0059004733 -0.010156229 -0.062653445 -0.0012157648 -0.056134857 -0.00041751718 -0.011619149
0.0075687016 -0.006143032 0.013704881 -0.08314242 0.013504343 0.0058858725 -0.00039331114 -0.001589559
0.0069724214 0.04076572 0.0016183729 0.0060098683 -0.0052953735 -0.047146767 -0.008539581 -0.05728462
0.012296992 -0.01759897 -0.0105954325 -0.015915217 0.009216213 -0.031662203 -1.836368e-05 -0.02152161
-0.007952896 0.0028360782 -0.017571405 0.0056744176 -0.007591882 -0.043875597 -0.020377696 -0.09769474
-0.020405455 -0.008380257 0.008136718 -0.040707197 0.0024792443 0.0042477623 0.0010298806 -0.010512382
-0.0916676 -0.022345584 0.005264181 -0.016700707 -0.0019551413 -0.0056826463 0.004324537 0.0045312536
-0.00402995 -0.0019239387 -0.08907637 -0.013676514 -0.05420847 -0.014372862 -0.015804373 0.005587328
0.010964713 -0.04072652 0.011140108 -0.019564 -0.024897229 -0.0231589 -0.01588765 0.0014520419
-0.0019841266 -0.007916142 0.011184452 -0.004818174 0.005522068 0.0004941699 0.00051837554 -0.018206026
-0.018862812 -0.08073876 -0.007708355 -0.0055865375 -0.008896642 -0.010032831 0.005821439 0.008427064
-0.033419553 -0.016219143 -0.00016371442 -0.006939716 0.019628469 -0.00011739057 0.009309282 0.00560169
-0.0015819592 -0.12062372 0.0055876873 -0.010314805 -0.0045994 -0.09506583 -0.02736614 -0.066244766
0.032649234 -0.013241337 0.0025166837 0.027293751 -0.0013349068 -0.026035076 -0.03857769 -0.044667263

fc_ss_no.bias f4 [10]
00000000: 0d32 793c 07c2 923c b7f8 3ebc 3e43 40bb
00000010: e700 763c 8708 c53c 43e7 31bc f2ba 5fba
00000020: 3cd2 99bc 693e 07bd
0.015209687 0.017914785 -0.011655978 -0.0029336954 0.015014864 0.024051918 -0.01085836 -0.0008534632
-0.018777005 -0.033018503

fc_tw_no.weight f4 [8, 4096]
00000000: 4d9d 34bc c160 9f39 a877 02bc 36e4 33bc
00000010: 36db 343c 7a50 57bb 8e6c d7bc 6a44 43bc
00000020: 2c13 5d39 4498 a33c 203a 213c d86b ccbc
00000030: 0748 433d 281a 763b f090 f8bb 49fa 843c
00000040: 15b8 82bc b0c7 5d3b 2334 f53a 6764 64bd
00000050: 5949 6f3c 9677 efbb 896f be3b fe44 42bd
00000060: b34c e5bb a781 953b 11df cc3a 16fb d03b
00000070: 0ea0 923d 1f28 373d f63d 2f3b 5a16 9e3b
00000080: c444 003b d3d1 7dbd ac7d a1bc c584 373c
00000090: 2f74 643c 8194 f93c 92f0 d0bc e972 95bc
000000a0: 5e3a 243c c412 413c 61a8 0a3d 5fa1 273d
000000b0: 6c32 afbc 2eab 8a3d 3226 a93c e85b 64bb
000000c0: 0340 033c 5c6b f23b 8c9e 103c 4db7 503d
000000d0: 41c3 3dbc 11de 10b9 604b c73c 7fbc 323d
000000e0: e226 08bc b4f3 6cbc c295 ae3b 83e0 5abc
000000f0: 207e 443c 0f89 703d 3869 d0bc bcf9 d0bd
00000100: 0e4d a43c aa38 b63b b2f5 c43b 9c97 663c
00000110: 5589 8e3d 39b8 f73b 620e 843c ee4f 1cbc
00000120: 5c26 49bc 761a 2039 fe40 8dbc 772f 6f3b
00000130: 4c30 eebd a1d4 0cbd 4780 343d f25f 15bc
00000140: baf5 16bc b1df 8fbc 5dd1 493c fad9 0ebd
00000150: c71e c23b 63c6 1b3d 43b3 663c 4327 8fba
00000160: a7d6 2bbc 76d0 ac3c 5bec a1ba 193f d739
00000170: f898 8dbb 9127 2e3c 22b3 5e3c 35f5 4e3b
00000180: d44e be3c 77ec f23c e165 643c 8705 e7bc
00000190: fd6c a63b fdbe 653c 40fa ceba 1949 e6bc
000001a0: d9de 42bd 2ed3 103c 1e4a ccbc ae1d e3bc
000001b0: 5af2 d43c 6d07 303c 5e36 433c 4a36 57bc
000001c0: 04c4 87bc 8957 c03b 1165 c23b 3b5c 4cbc
000001d0: b661 133c 78f7 86bc bc35 453b 02fe fb3a
000001e0: e40d 49bc e806 5abb c84b 2f3c f4c1 333b
000001f0: ad5c d8bc c6e5 a93b 6197 2dbc 8851 dbba
00000200: 60a3 60bb 8d50 ec3b ec66 38ba 69ea 053d
00000210: 6212 513c 4085 7838 37bd 74bb 843c 5bbd
00000220: 5835 cc3b c14a f43c 7520 93bb 3a56 a9bc
00000230: 9a7c 21bb 7c7b f43c 74d5 3dbc 6007 6ebc
00000240: 53ed 0239 1a84 e33a 5a39 823c a230 ff3b
00000250: 3369 8bbb 6e44 e9bc 0567 563c b9d6 053c
00000260: 5b12 17bc 52f2 95bb 1866 a1bb a70d 83bc
00000270: 8f1d d83a 3c8e f5b9 ac0b c93a 9791 09bd
00000280: 9579 98bc 8225 2c3c 8d76 843c 755f 39bc
00000290: 4ca0 27bc 8e17 7fba b7a9 393c 9638 afbc
000002a0: 56e7 8abb e291 933b d142 783c 82ca 3a3c
000002b0: 5b8f d23b 08bd 003c 2307 acbb 0a10 fabc
000002c0: 42c0 2abc 2acb 863b 4ede 183c 9bcb 91bb
000002d0: 63da 2abc 1b5f 8a3c 7f9c d23c d721 1abc
000002e0: 3ad2 abbb 5283 3d3c b887 d93c 0b48 82bb
000002f0: a9cb 15bb dec1 4a3c 0b85 23bc bf03 59ba
00000300: 0853 bd3d b011 393b 9f2c 0b3d f063 2f3c
00000310: ea41 5abb d492 bf3a ddd8 f73a 7f48 853b
00000320: c400 34bc b5ee 5abc 332b b2bb 07e4 933c
00000330: 605c eebc 0eff 7f3c 68bb dfba a534 4dbc
00000340: 1e4c ac3b ed88 e8bc 8e69 76bc 8399 10bc
00000350: 642c 13bd 0833 50bc 07b2 1cbb 65c1 ff3b
00000360: 0ff0 9b3d 8825 f93b 884e a63b e6f8 793c
00000370: 5731 e43c 3e32 243c b4d1 2ebc 9b2d dcbb
00000380: dad3 123c c3e6 943c c3eb 97bb 8d64 473d
00000390: 52f8 8a3b 05e4 3abc a088 c7bb 2ffc d23a
000003a0: c315 5ebc 7235 423c e6e9 26bc 6888 473c
000003b0: 14da 8939 0366 163c 7676 c0b8 2dec 013c
000003c0: fb6a 9dbc f3be f63b e9b8 d83b c073 04bc
000003d0: 766b 823c acd7 673c e05e 9c3d eb97 523d
000003e0: 99d6 f33c 17da 1abc 6249 71bc 0c11 a839
000003f0: 5022 3f3c 4b57 263d 971e 4f3d ca36 583d
-0.011023832 0.0003039893 -0.007963099 -0.010979703 0.011038592 -0.0032854364 -0.02629688 -0.011918167
0.00021083344 0.019970067 0.009840518 -0.024953768 0.047676113 0.0037552211 -0.0075856373 0.016232627
-0.015956918 0.0033840947 0.0018707555 -0.055759814 0.01460489 -0.007307957 0.005811636 -0.047429077
-0.0069976687 0.004562575 0.0015630444 0.006377588 0.07159434 0.044715997 0.0026739812 0.004824442
0.0019572238 -0.061967682 -0.019713245 0.011201088 0.013943716 0.03046632 -0.025505338 -0.01824327
0.010023681 0.011784259 0.033851985 0.04092538 -0.021386348 0.06770931 0.020648096 -0.003484482
0.008010867 0.007398052 0.008826863 0.05095606 -0.011582197 -0.00013815636 0.024327934 0.043636795
-0.008310052 -0.0144624 0.005327911 -0.013359192 0.011992961 0.05872446 -0.025440797 -0.10203883
0.020056274 0.005560954 0.0060107345 0.014074232 0.06959788 0.007559803 0.01612014 -0.009540541
-0.012277212 0.00015268647 -0.017242905 0.0036496797 -0.11630306 -0.034382466 0.044067647 -0.009117113
-0.009213859 -0.017562719 0.0123179825 -0.034875847 0.005924079 0.038030993 0.014080825 -0.0010921735
-0.010488189 0.021095496 -0.0012353765 0.00041055007 -0.004321214 0.010629551 0.013592513 0.003157926
0.023230948 0.02965377 0.013940305 -0.028200878 0.0050789104 0.014022586 -0.0015791133 -0.028111028
-0.047575805 0.008839412 -0.024937686 -0.027724113 0.025994468 0.010743958 0.011914818 -0.013135502
-0.01657296 0.00586981 0.005932458 -0.012473161 0.008995464 -0.016475424 0.0030091843 0.001922548
-0.012271378 -0.0033268277 0.01069922 0.0027428837 -0.026411379 0.005184862 -0.010595174 -0.0016732672
-0.0034277067 0.007211751 -0.00070343795 0.032694254 0.01276073 5.9251906e-05 -0.0037344226 -0.05352451
0.006231945 0.029820802 -0.004489953 -0.020670999 -0.0024640919 0.029844038 -0.011586536 -0.0145281255
0.00012486176 0.0017358095 0.015896488 0.00778778 -0.004254484 -0.028475013 0.013086085 0.00816887
-0.009220685 -0.004576006 -0.0049255006 -0.01599772 0.0016488301 -0.00046836014 0.0015338561 -0.03358611
-0.018612662 0.010506989 0.01616981 -0.011314263 -0.010231089 -0.0009730988 0.011331967 -0.021389287
-0.004239003 0.0045034746 0.015152649 0.011400821 0.0064257807 0.007857569 -0.005249874 -0.030525226
-0.010421814 0.0041135745 0.009330345 -0.0044493205 -0.010428044 0.016891053 0.025709389 -0.009407482
-0.005243567 0.011566954 0.026553974 -0.0039758733 -0.0022856987 0.012375323 -0.00998045 -0.0008278451
0.092443526 0.0028239302 0.0339781 0.010704979 -0.0033303448 0.0014615902 0.0018909235 0.00406748
-0.010986511 -0.013362576 -0.0054372787 0.018053068 -0.029096782 0.015624775 -0.0017069401 -0.012524758
0.0052580973 -0.028385604 -0.015039815 -0.008825663 -0.035931006 -0.012707479 -0.0023909824 0.007805037
0.07614147 0.007603351 0.0050752796 0.015257096 0.027855558 0.010021744 -0.010670114 -0.006719304
0.008961642 0.018176442 -0.0046362593 0.048679877 0.004241028 -0.011406903 -0.006089285 0.0016096885
-0.013554993 0.011853563 -0.010187602 0.012178518 0.00026293157 0.009179595 -9.1773385e-05 0.007929844
-0.019216051 0.007530087 0.00661384 -0.008084238 0.015920382 0.014150541 0.076352835 0.05141441
0.029765414 -0.009451411 -0.0147269685 0.00032056158 0.011665896 0.040610593 0.050566282 0.052786626

fc_tw_no.bias f4 [8]
00000000: c8bf a03b 4a8b 8a3c 5458 a6bb 2e5f e839
00000010: 992e 43bb 1f02 e5bc 0b5d c83a 84d5 b33a
0.0049056746 0.016912121 -0.0050764475 0.00044321403 -0.0029782413 -0.027955113 0.0015286518 0.0013720249
