models/model_score_regressor_94.pth (torch_old, 16976 bytes, 1 tensors)

fc_final_score.weight f4 [1, 4096]
-0.0051062987 0.00018206525 0.0049396306 -0.010172248 -0.003738958 -0.014946192 0.00045097145 -0.009671937
0.0004230209 0.0010850515 0.0027297917 0.0032667418 0.007544614 -0.0010479243 -0.00065425254 0.005031097
0.00070209557 0.00046062417 -0.00055062276 0.00068559323 -0.0016489252 0.0032929145 0.009547885 0.0018737525
-0.0047466774 -0.00031736094 -0.0029824725 -0.01323379 -0.0025429563 0.00015515859 -0.00035549395 0.003043185
0.0031375655 -0.0028569244 -0.0020496359 -0.0010337597 0.004015711 -0.024806043 -0.0012458303 -0.003415263
-0.0028175267 -0.00939246 -0.0009332091 0.002939188 0.0022918722 0.00075767824 -0.0013929562 -0.0017682381
-0.0055071795 0.00040015104 0.0016053659 -0.025523711 -0.0035095816 0.0016629369 -0.012216104 0.012440167
-0.0029614817 0.00078646385 0.001875632 0.0031282823 0.0015159926 -0.0012529533 -0.001176613 -3.5155193e-05
-0.01186402 -0.011128015 0.0007566798 0.0038232703 -0.0025832786 0.0019432035 0.001187248 0.00032481403
0.003059283 0.0012072435 0.0014902797 -0.002255647 0.00047587755 -0.0012215888 -0.0008314828 0.003070115
-0.0009020606 0.0074741044 -0.00094248797 -0.0008777687 0.0002556113 -0.0040010293 -0.0045327297 0.000920384
0.0072446857 -0.012268088 0.0008246548 0.013023897 0.014641528 -0.0014138136 0.0043809 0.000794135
0.0054556136 -0.006851613 -0.0067481766 0.002122322 -0.001478247 -0.0131125245 -0.0072302055 -0.00033727227
0.0006462289 0.0004634906 0.0001501231 -0.02569005 0.00056952744 -0.0052794595 -0.0042524235 0.0033222027
-0.000800271 0.0031929177 0.0012805501 0.0009421179 -0.00040496048 -0.008917795 -0.00028114693 -0.0071972953
-0.0059900857 -0.0057470817 -0.0027639174 -0.0095639955 -0.00015697627 0.0015870001 0.0060069617 -0.00019572473
-0.0036121728 0.0013588018 0.00042604687 0.0020805034 0.0024695543 -0.002805203 0.009115776 -0.0024108386
-0.006972967 -0.0007401522 0.005281619 0.015376088 -0.005119266 -0.00017610264 0.00458185 -0.00055423856
-0.000104192084 -0.0053094127 -0.0026312037 -0.0030783857 0.0016325994 -0.00037218208 -2.7511327e-05 0.00021257467
0.0031152423 0.00036087315 0.011038629 -0.00121567 0.010703248 0.0060750856 0.001875734 -0.002035686
-0.0013245965 -0.001462024 -0.0002687341 0.0001796555 -0.00052223017 0.00051665376 -0.00036066878 -0.00012139509
-0.0014639331 0.00014312041 -0.003833415 -0.009500214 -0.0054677455 -0.0014326028 0.009463011 -0.0011324005
0.0014504519 -0.0067243646 -0.004185131 0.0034199879 -0.0060614953 -0.0004070537 -0.0015930859 0.0014959209
0.0018227723 -0.005051208 -0.0010119434 -0.0014512915 0.007157938 0.0011612923 -0.009166721 0.0034808032
-0.00042017884 -9.135957e-05 -0.00018498428 -5.6733654e-05 0.0009030049 -0.0059930696 -0.0011291511 -0.012007841
-0.00590018 -0.0013262611 0.00035287972 7.372452e-05 -0.00030374428 -0.007609502 -0.008199487 -0.0071642795
-0.0019755731 0.0075340327 -0.0024556883 0.0037259546 -0.004558202 -0.0044055595 -0.0002157246 -0.0029244304
0.000121091965 -0.0060365633 -0.006275922 -0.005887314 0.0023574987 0.00768311 0.005088721 -0.0041637192
0.0017267219 0.0006352317 -0.01044008 -0.0014451749 0.00716122 -0.0014313381 0.00038852412 0.0044908235
0.010103309 -0.006883349 -0.007578856 0.005470795 0.0012171859 -0.00252708 0.00538906 0.0063651595
0.016769014 0.00026731912 -0.013069128 -0.009891907 0.0029198786 0.007638302 -0.0006427636 -0.00019821052
-0.00441588 0.0014861628 -0.013247069 -0.0006498313 -0.0034012252 0.0048951283 -0.00639273 -0.00034147268
00000000: bd52 a7bb c5e8 3e39 a0dc a13b 80a9 26bc
00000010: 4e09 75bb dfe0 74bc 5d70 ec39 0b77 1ebc
00000020: e7c8 dd39 4938 8e3a 4ee6 323b d516 563b
00000030: cf38 f73b 815a 89ba 2582 2bba e7db a43b
00000040: d60c 383a ee7f f139 ab57 10ba 62b9 333a
00000050: c020 d8ba f0cd 573b bb6e 1c3c b398 f53a
00000060: 048a 9bbb 7763 a6b9 9675 43bb 8ad2 58bc
00000070: baa7 26bb 11b2 2239 9761 bab9 2c70 473b
00000080: 9d9f 4d3b 3d3b 3bbb 2f53 06bb 387f 87ba
00000090: 3a96 833b 0b36 cbbc 214b a3ba 9bd2 5fbb
000000a0: 41a6 38bb d5e2 19bc 9aa2 74ba 649f 403b
000000b0: 3c33 163b ed9e 463a db93 b6ba 3ac4 e7ba
000000c0: 9275 b4bb 5dcb d139 246b d23a 1a17 d1bc
000000d0: 0201 66bb e7f6 d93a 0e26 48bc d8d1 4b3c
000000e0: 6b15 42bb b22a 4e3a c4d7 f53a de03 4d3b
000000f0: 45b4 c63a 233a a4ba 9538 9aba 9a73 13b8
00000100: 4e61 42bc 4752 36bc ec5b 463a d58f 7a3b
00000110: 394c 29bb 17b3 fe3a 6f9d 9b3a cd4b aa39
00000120: 407e 483b 5f3c 9e3a 7d55 c33a 7ad3 13bb
00000130: 347f f939 b81d a0ba def7 59ba fc33 493b
00000140: 4378 6cba 55e9 f43b 4c11 77ba 0f1a 66ba
00000150: 9103 8639 111b 83bb 4b87 94bb ed45 713a
00000160: d464 ed3b 1700 49bc a62d 583a 2f62 553c
00000170: 05e3 6f3c b64f b9ba a78d 8f3b 7f2d 503a
00000180: 01c5 b23b 7f83 e0bb cf1f ddbb a816 0b3b
00000190: bdc1 c1ba ead5 56bc 5ceb ecbb ebd3 b0b9
000001a0: b067 293a a800 f339 5d6a 1d39 f173 d2bc
000001b0: 574c 153a 51ff acbb ea57 8bbb 50b9 593b
000001c0: 47c9 51ba 4540 513b 22d8 a73a 76f8 763a
000001d0: e050 d4b9 f11b 12bc e766 93b9 4ad7 ebbb
000001e0: 7b48 c4bb 0452 bcbb d722 35bb 4eb2 1cbc
000001f0: ff99 24b9 e302 d03a 0cd6 c43b 753b 4db9
00000200: 34ba 6cbb d319 b23a 0b5f df39 0e59 083b
00000210: 3fd8 213b 7fd7 37bb 565a 153c 29ff 1dbb
00000220: 7d7d e4bb c606 42ba 6e11 ad3b fdeb 7b3c
00000230: 84bf a7bb 31a8 38b9 5823 963b 524a 11ba
00000240: b381 dab8 95fa adbb 4670 2cbb bebe 49bb
00000250: f2fc d53a 6f21 c3b9 20c8 e6b7 94e6 5e39
00000260: 1829 4c3b 9333 bd39 5edb 343c 1e57 9fba
00000270: ad5c 2f3c 8311 c73b 30db f53a 2569 05bb
00000280: 159e adba 63a1 bfba e1e4 8cb9 e861 3c39
00000290: 46e6 08ba 0c70 073a 2518 bdb9 7e95 feb8
000002a0: 72e1 bfba 9812 1639 083a 7bbb c9a6 1bbc
000002b0: c62a b3bb 2cc6 bbba bf0a 1b3c 0e6d 94ba
000002c0: 171d be3a 0f58 dcbb 6c23 89bb e021 603b
000002d0: 829f c6bb d369 d5b9 18cf d0ba c712 c43a
000002e0: 17ea ee3a 9b84 a5bb 30a3 84ba 4339 beba
000002f0: 238d ea3b 8136 983a 0430 16bc 301e 643b
00000300: 734b dcb9 4c98 bfb8 57f8 41b9 4cf5 6db8
00000310: a2b7 6c3a 8361 c4bb 0600 94ba 89bc 44bc
00000320: 4c56 c1bb f0d5 adba b702 b939 8d9c 9a38
00000330: de3f 9fb9 2159 f9bb 2457 06bc 55c2 eabb
00000340: 9e78 01bb 0ce0 f63b 9def 20bb 252f 743b
00000350: f85c 95bb 835c 90bb 2234 62b9 cda7 3fbb
00000360: c1f2 fd38 5dce c5bb 40a6 cdbb 5fea c0bb
00000370: 4480 1a3b 99c2 fb3b 49bf a63b cf6f 88bb
00000380: 2c53 e23a ae85 263a df0c 2bbc 066c bdba
00000390: aba8 ea3b bd9b bbba d3b2 cb39 c227 933b
000003a0: 5988 253c b78d e1bb 0d58 f8bb 5b44 b33b
000003b0: fb89 9f3a 5e9d 25bb b696 b03b d492 d03b
000003c0: 2c5f 893c f726 8c39 e51f 56bc aa11 22bc
000003d0: 6f5b 3f3b b94a fa3b 237f 28ba bbd6 4fb9
000003e0: 16b3 90bb 59cb c23a 3c0a 59bc 7159 2aba
000003f0: 17e7 5ebb 5067 a03b 1b7a d1bb b007 b3b9
